…
	Dataset enlarge ratio: 1
	Batch size per gpu: 2
	World size (gpu number): 4
	Require iter number per epoch: 2606
	Total epochs: 116; iters: 300000.
2026-03-29 01:56:11,747 INFO: Dataset [BurstImageDataset] - RealBSR_val is built.
2026-03-29 01:56:11,747 INFO: Number of val images/folders in RealBSR_val: 2377
2026-03-29 01:56:12,062 INFO: Network [MambaFusionNet] is created.
2026-03-29 01:56:12,495 INFO: Network: DistributedDataParallel - MambaFusionNet, with parameters: 24,007,215
2026-03-29 01:56:12,495 INFO: MambaFusionNet(
  (alignment): BurstAlign(
    (feat_extractor_lv1): Sequential(
      (0): Conv2d(4, 64, kernel_size=(3, 3), stride=(1, 1), padding=(1, 1))
      (1): ReLU(inplace=True)
      (2): Conv2d(64, 64, kernel_size=(3, 3), stride=(1, 1), padding=(1, 1))
      (3): ReLU(inplace=True)
      (4): Conv2d(64, 64, kernel_size=(3, 3), stride=(1, 1), padding=(1, 1))
      (5): ReLU(inplace=True)
    )
    (feat_extractor_lv2): Sequential(
      (0): Conv2d(64, 64, kernel_size=(3, 3), stride=(2, 2), padding=(1, 1))
      (1): ReLU(inplace=True)
      (2): Conv2d(64, 64, kernel_size=(3, 3), stride=(1, 1), padding=(1, 1))
      (3): ReLU(inplace=True)
    )
    (offset_predictor_lv1): Sequential(
      (0): Conv2d(128, 64, kernel_size=(3, 3), stride=(1, 1), padding=(1, 1))
      (1): ReLU(inplace=True)
      (2): Conv2d(64, 64, kernel_size=(3, 3), stride=(1, 1), padding=(1, 1))
      (3): ReLU(inplace=True)
      (4): Conv2d(64, 64, kernel_size=(3, 3), stride=(1, 1), padding=(1, 1))
    )
    (offset_predictor_lv2): Sequential(
      (0): Conv2d(128, 64, kernel_size=(3, 3), stride=(1, 1), padding=(1, 1))
      (1): ReLU(inplace=True)
      (2): Conv2d(64, 64, kernel_size=(3, 3), stride=(1, 1), padding=(1, 1))
      (3): ReLU(inplace=True)
      (4): Conv2d(64, 64, kernel_size=(3, 3), stride=(1, 1), padding=(1, 1))
    )
    (up_lv2): Sequential(
      (0): Conv2d(64, 256, kernel_size=(3, 3), stride=(1, 1), padding=(1, 1))
      (1): PixelShuffle(upscale_factor=2)
      (2): LeakyReLU(negative_slope=0.1, inplace=True)
    )
    (offset_proj_lv1): Conv2d(64, 112, kernel_size=(3, 3), stride=(1, 1), padding=(1, 1))
    (dcn_lv1): DCNv4Block(
      (value_proj): Conv2d(64, 64, kernel_size=(1, 1), stride=(1, 1))
      (output_proj): Conv2d(64, 64, kernel_size=(1, 1), stride=(1, 1))
    )
  )
  (fusion): TemporalFusion(
    (norm): LayerNorm((64,), eps=1e-05, elementwise_affine=True)
    (q_proj): Linear(in_features=64, out_features=64, bias=True)
    (k_proj): Linear(in_features=64, out_features=64, bias=True)
    (v_proj): Linear(in_features=64, out_features=64, bias=True)
    (attn): MultiheadAttention(
      (out_proj): NonDynamicallyQuantizableLinear(in_features=64, out_features=64, bias=True)
    )
    (norm2): LayerNorm((64,), eps=1e-05, elementwise_affine=True)
    (mlp): Sequential(
      (0): Linear(in_features=64, out_features=256, bias=True)
      (1): GELU(approximate='none')
      (2): Linear(in_features=256, out_features=64, bias=True)
    )
    (fusion_conv): Sequential(
      (0): Conv2d(64, 64, kernel_size=(3, 3), stride=(1, 1), padding=(1, 1))
      (1): ReLU()
      (2): Conv2d(64, 64, kernel_size=(3, 3), stride=(1, 1), padding=(1, 1))
    )
  )
  (restoration): MambaIRv2(
    (conv_first): Conv2d(64, 174, kernel_size=(1, 1), stride=(1, 1))
    (patch_embed): PatchEmbed(
      (norm): LayerNorm((174,), eps=1e-05, elementwise_affine=True)
    )
    (patch_unembed): PatchUnEmbed()
    (layers): ModuleList(
      (0-5): 6 x ASSB(
        (patch_embed): PatchEmbed()
        (patch_unembed): PatchUnEmbed()
        (residual_group): BasicBlock(
          dim=174, input_resolution=(64, 64), depth=6
          (layers): ModuleList(
            (0-5): 6 x AttentiveLayer(
              (softmax): Softmax(dim=-1)
              (lrelu): LeakyReLU(negative_slope=0.01)
              (sigmoid): Sigmoid()
              (norm1): LayerNorm((174,), eps=1e-05, elementwise_affine=True)
              (norm2): LayerNorm((174,), eps=1e-05, elementwise_affine=True)
              (norm3): LayerNorm((174,), eps=1e-05, elementwise_affine=True)
              (norm4): LayerNorm((174,), eps=1e-05, elementwise_affine=True)
              (wqkv): Linear(in_features=174, out_features=522, bias=True)
              (win_mhsa): WindowAttention(
                dim=174, window_size=(16, 16), num_heads=6, qkv_bias=True
                (proj): Linear(in_features=174, out_features=174, bias=True)
                (softmax): Softmax(dim=-1)
              )
              (assm): ASSM(
                (selectiveScan): Selective_Scan()
                (out_norm): LayerNorm((348,), eps=1e-05, elementwise_affine=True)
                (act): SiLU()
                (out_proj): Linear(in_features=348, out_features=174, bias=True)
                (in_proj): Sequential(
                  (0): Conv2d(174, 348, kernel_size=(1, 1), stride=(1, 1))
                )
                (CPE): Sequential(
                  (0): Conv2d(348, 348, kernel_size=(3, 3), stride=(1, 1), padding=(1, 1), groups=348)
                )
                (embeddingB): Embedding(128, 64)
                (route): Sequential(
                  (0): Linear(in_features=174, out_features=58, bias=True)
                  (1): GELU(approximate='none')
                  (2): Linear(in_features=58, out_features=128, bias=True)
                  (3): LogSoftmax(dim=-1)
                )
              )
              (convffn1): ConvFFN(
                (fc1): Linear(in_features=174, out_features=348, bias=True)
                (act): GELU(approximate='none')
                (dwconv): dwconv(
                  (depthwise_conv): Sequential(
                    (0): Conv2d(348, 348, kernel_size=(5, 5), stride=(1, 1), padding=(2, 2), groups=348)
                    (1): GELU(approximate='none')
                  )
                )
                (fc2): Linear(in_features=348, out_features=174, bias=True)
              )
              (convffn2): ConvFFN(
                (fc1): Linear(in_features=174, out_features=348, bias=True)
                (act): GELU(approximate='none')
                (dwconv): dwconv(
                  (depthwise_conv): Sequential(
                    (0): Conv2d(348, 348, kernel_size=(5, 5), stride=(1, 1), padding=(2, 2), groups=348)
                    (1): GELU(approximate='none')
                  )
                )
                (fc2): Linear(in_features=348, out_features=174, bias=True)
              )
              (embeddingA): Embedding(64, 16)
            )
          )
        )
        (conv): Conv2d(174, 174, kernel_size=(3, 3), stride=(1, 1), padding=(1, 1))
      )
    )
    (norm): LayerNorm((174,), eps=1e-05, elementwise_affine=True)
    (conv_after_body): Conv2d(174, 174, kernel_size=(3, 3), stride=(1, 1), padding=(1, 1))
    (conv_before_upsample): Sequential(
      (0): Conv2d(174, 64, kernel_size=(3, 3), stride=(1, 1), padding=(1, 1))
      (1): LeakyReLU(negative_slope=0.01, inplace=True)
    )
    (upsample): Upsample(
      (0): Conv2d(64, 256, kernel_size=(3, 3), stride=(1, 1), padding=(1, 1))
      (1): PixelShuffle(upscale_factor=2)
      (2): Conv2d(64, 256, kernel_size=(3, 3), stride=(1, 1), padding=(1, 1))
      (3): PixelShuffle(upscale_factor=2)
      (4): Conv2d(64, 256, kernel_size=(3, 3), stride=(1, 1), padding=(1, 1))
      (5): PixelShuffle(upscale_factor=2)
    )
    (conv_last): Conv2d(64, 3, kernel_size=(3, 3), stride=(1, 1), padding=(1, 1))
  )
)
2026-03-29 01:56:12,499 INFO: Loss [CharbonnierLoss] is created.
2026-03-29 01:56:12,503 INFO: Loss [CharbonnierLoss] is created.
2026-03-29 01:56:12,503 INFO: Model [MambaFusionModel] is created.
2026-03-29 01:56:54,007 INFO: Start training from epoch: 0, iter: 0
/groups/rls/blozanod/MambaFusion/burstISP/archs/mambafusion_arch.py:66: FutureWarning: `torch.cuda.amp.autocast(args...)` is deprecated. Please use `torch.amp.autocast('cuda', args...)` instead.
…
