…
/users/blozanod/.conda/envs/MambaTraining/lib/python3.12/site-packages/torchvision/models/_utils.py:223: UserWarning: Arguments other than a weight enum or `None` for 'weights' are deprecated since 0.13 and may be removed in the future. The current behavior is equivalent to passing `weights=VGG19_Weights.IMAGENET1K_V1`. You can also use `weights=VGG19_Weights.DEFAULT` to get the most up-to-date weights.
  warnings.warn(msg)
2026-03-15 23:56:12,308 INFO: Network: DistributedDataParallel - MambaFusionNet, with parameters: 24,352,559
2026-03-15 23:56:12,308 INFO: MambaFusionNet(
  (alignment): BurstAlign(
    (feat_extractor_lv1): Sequential(
      (0): Conv2d(4, 64, kernel_size=(3, 3), stride=(1, 1), padding=(1, 1))
      (1): ReLU(inplace=True)
      (2): Conv2d(64, 64, kernel_size=(3, 3), stride=(1, 1), padding=(1, 1))
      (3): ReLU(inplace=True)
      (4): Conv2d(64, 64, kernel_size=(3, 3), stride=(1, 1), padding=(1, 1))
      (5): ReLU(inplace=True)
    )
    (feat_extractor_L2): Sequential(
      (0): Conv2d(64, 64, kernel_size=(3, 3), stride=(2, 2), padding=(1, 1))
      (1): ReLU(inplace=True)
      (2): Conv2d(64, 64, kernel_size=(3, 3), stride=(1, 1), padding=(1, 1))
      (3): ReLU(inplace=True)
    )
    (offset_predictor_lv1): Sequential(
      (0): Conv2d(128, 64, kernel_size=(3, 3), stride=(1, 1), padding=(1, 1))
      (1): ReLU(inplace=True)
      (2): Conv2d(64, 64, kernel_size=(3, 3), stride=(1, 1), padding=(1, 1))
      (3): ReLU(inplace=True)
      (4): Conv2d(64, 216, kernel_size=(3, 3), stride=(1, 1), padding=(1, 1))
    )
    (offset_predictor_lv2): Sequential(
      (0): Conv2d(128, 64, kernel_size=(3, 3), stride=(1, 1), padding=(1, 1))
      (1): ReLU(inplace=True)
      (2): Conv2d(64, 64, kernel_size=(3, 3), stride=(1, 1), padding=(1, 1))
      (3): ReLU(inplace=True)
      (4): Conv2d(64, 216, kernel_size=(3, 3), stride=(1, 1), padding=(1, 1))
    )
    (dcn_lv1): TorchModDeformConv()
  )
  (restoration): MambaIRv2(
    (conv_first): Conv2d(320, 174, kernel_size=(3, 3), stride=(1, 1), padding=(1, 1))
    (patch_embed): PatchEmbed(
      (norm): LayerNorm((174,), eps=1e-05, elementwise_affine=True)
    )
    (patch_unembed): PatchUnEmbed()
    (layers): ModuleList(
      (0-5): 6 x ASSB(
        (patch_embed): PatchEmbed()
        (patch_unembed): PatchUnEmbed()
        (residual_group): BasicBlock(
          dim=174, input_resolution=(64, 64), depth=6
          (layers): ModuleList(
            (0-5): 6 x AttentiveLayer(
              (softmax): Softmax(dim=-1)
              (lrelu): LeakyReLU(negative_slope=0.01)
              (sigmoid): Sigmoid()
              (norm1): LayerNorm((174,), eps=1e-05, elementwise_affine=True)
              (norm2): LayerNorm((174,), eps=1e-05, elementwise_affine=True)
              (norm3): LayerNorm((174,), eps=1e-05, elementwise_affine=True)
              (norm4): LayerNorm((174,), eps=1e-05, elementwise_affine=True)
              (wqkv): Linear(in_features=174, out_features=522, bias=True)
              (win_mhsa): WindowAttention(
                dim=174, window_size=(16, 16), num_heads=6, qkv_bias=True
                (proj): Linear(in_features=174, out_features=174, bias=True)
                (softmax): Softmax(dim=-1)
              )
              (assm): ASSM(
                (selectiveScan): Selective_Scan()
                (out_norm): LayerNorm((348,), eps=1e-05, elementwise_affine=True)
                (act): SiLU()
                (out_proj): Linear(in_features=348, out_features=174, bias=True)
                (in_proj): Sequential(
                  (0): Conv2d(174, 348, kernel_size=(1, 1), stride=(1, 1))
                )
                (CPE): Sequential(
                  (0): Conv2d(348, 348, kernel_size=(3, 3), stride=(1, 1), padding=(1, 1), groups=348)
                )
                (embeddingB): Embedding(128, 64)
                (route): Sequential(
                  (0): Linear(in_features=174, out_features=58, bias=True)
                  (1): GELU(approximate='none')
                  (2): Linear(in_features=58, out_features=128, bias=True)
                  (3): LogSoftmax(dim=-1)
                )
              )
              (convffn1): ConvFFN(
                (fc1): Linear(in_features=174, out_features=348, bias=True)
                (act): GELU(approximate='none')
                (dwconv): dwconv(
                  (depthwise_conv): Sequential(
                    (0): Conv2d(348, 348, kernel_size=(5, 5), stride=(1, 1), padding=(2, 2), groups=348)
                    (1): GELU(approximate='none')
                  )
                )
                (fc2): Linear(in_features=348, out_features=174, bias=True)
              )
              (convffn2): ConvFFN(
                (fc1): Linear(in_features=174, out_features=348, bias=True)
                (act): GELU(approximate='none')
                (dwconv): dwconv(
                  (depthwise_conv): Sequential(
                    (0): Conv2d(348, 348, kernel_size=(5, 5), stride=(1, 1), padding=(2, 2), groups=348)
                    (1): GELU(approximate='none')
                  )
                )
                (fc2): Linear(in_features=348, out_features=174, bias=True)
              )
              (embeddingA): Embedding(64, 16)
            )
          )
        )
        (conv): Conv2d(174, 174, kernel_size=(3, 3), stride=(1, 1), padding=(1, 1))
      )
    )
    (norm): LayerNorm((174,), eps=1e-05, elementwise_affine=True)
    (conv_after_body): Conv2d(174, 174, kernel_size=(3, 3), stride=(1, 1), padding=(1, 1))
    (conv_before_upsample): Sequential(
      (0): Conv2d(174, 64, kernel_size=(3, 3), stride=(1, 1), padding=(1, 1))
      (1): LeakyReLU(negative_slope=0.01, inplace=True)
    )
    (upsample): Upsample(
      (0): Conv2d(64, 256, kernel_size=(3, 3), stride=(1, 1), padding=(1, 1))
      (1): PixelShuffle(upscale_factor=2)
      (2): Conv2d(64, 256, kernel_size=(3, 3), stride=(1, 1), padding=(1, 1))
      (3): PixelShuffle(upscale_factor=2)
      (4): Conv2d(64, 256, kernel_size=(3, 3), stride=(1, 1), padding=(1, 1))
      (5): PixelShuffle(upscale_factor=2)
    )
    (conv_last): Conv2d(64, 3, kernel_size=(3, 3), stride=(1, 1), padding=(1, 1))
  )
)
2026-03-15 23:56:12,312 INFO: Loss [CharbonnierLoss] is created.
/users/blozanod/.conda/envs/MambaTraining/lib/python3.12/site-packages/torchvision/models/_utils.py:208: UserWarning: The parameter 'pretrained' is deprecated since 0.13 and may be removed in the future, please use 'weights' instead.
  warnings.warn(
/users/blozanod/.con
…
